prediction2/app/src/main/ml/modeltf_2.tflite (tflite, 25248 bytes, 9 tensors)

sequential_6/dense_28/BiasAdd/ReadVariableOp f4 [32]
0	0x00000000	0.0
1	0xbc101cd2	-0.008795934
2	0x3c1843ff	0.009293555
3	0x3d055c7e	0.03255891
4	0xbd260b59	-0.040538166
5	0xbc0b53d9	-0.008503878
6	0x3d0e6cfd	0.034771908
7	0x3d068b1e	0.032847516
8	0xbc17dc5a	-0.0092688445
9	0xbbdde140	-0.0067712367
10	0x3ccc12b0	0.024911255
11	0x3cbba1cd	0.022904301
12	0x3d293019	0.041305635
13	0xbcf9af19	-0.030479
14	0x3d861a40	0.065479755
15	0xbcc381e5	-0.02386565
16	0xbc9f1731	-0.019420238
17	0xbb141ef4	-0.0022601457
18	0x3bfff4b8	0.007811155
19	0xbd12bf9e	-0.03582727
20	0x3d567d05	0.05236532
21	0xbc8b21fc	-0.016983978
22	0xbc1785ed	-0.009248239
23	0x3c418e32	0.011813687
24	0x00000000	0.0
25	0xbd05dc89	-0.03268102
26	0x3b1865a3	0.002325394
27	0x3d21398e	0.03936153
28	0xbcc3e881	-0.023914577
29	0x3d479ab0	0.048731506
30	0x3d07882d	0.03308885
31	0x3c68a245	0.014198844

sequential_6/dense_27/BiasAdd/ReadVariableOp f4 [32]
0	0x3be41393	0.0069603412
1	0x3d48a6a7	0.048987057
2	0x00000000	0.0
3	0x3d8d5431	0.06900824
4	0x3d0870ed	0.03331082
5	0xbc43dfb0	-0.011955187
6	0x3d4e1715	0.05031498
7	0x3d64f5f3	0.055898618
8	0x3d18484c	0.037178323
9	0xbbaf0dec	-0.005342236
10	0x3dc08fc8	0.09402424
11	0x3b706b66	0.0036685108
12	0x3d1793b5	0.0370061
13	0x3c7a40ac	0.015274208
14	0x3d5bf542	0.053700693
15	0x3cbe8aad	0.023259485
16	0x00000000	0.0
17	0xbb8a4da7	-0.0042206827
18	0x3d36e8dc	0.044655666
19	0x3d108cdd	0.035290588
20	0x3d24a09f	0.040192243
21	0xbc447ce3	-0.011992666
22	0x00000000	0.0
23	0x3cabad93	0.02095679
24	0x3b9b88e9	0.0047465456
25	0x3c2d5c53	0.010581094
26	0x00000000	0.0
27	0xbc08aca7	-0.008341945
28	0x3d4439ed	0.047906805
29	0x3ca06b18	0.019582316
30	0x3acae7ec	0.0015480495
31	0x3d99143a	0.07474561

sequential_6/dense_26/BiasAdd/ReadVariableOp f4 [32]
0	0x3d163abf	0.03667712
1	0xbcd34ae8	-0.025792554
2	0xbc11a255	-0.008888801
3	0x3d0fb770	0.03508705
4	0x3cd451b9	0.025917875
5	0xbc882a91	-0.01662186
6	0x3d08a90d	0.033364344
7	0x3dba6e1a	0.091030315
8	0x3d86d052	0.06582703
9	0x3ce83ce5	0.02834935
10	0x3c065419	0.008198761
11	0x3df29a6b	0.11845859
12	0xbbb21ebb	-0.0054357923
13	0x3ce7359e	0.028223809
14	0x3daa7eb1	0.08324946
15	0x3d4f5926	0.050622128
16	0x3b8c15e5	0.004275071
17	0xbd2b97c3	-0.041892778
18	0xbae03774	-0.001710637
19	0x3c81f3c8	0.015863314
20	0xbc8674ff	-0.01641321
21	0x3d293df4	0.04131885
22	0xbd13319d	-0.035935987
23	0xbba8599e	-0.0051376363
24	0x3bd7f27f	0.006590187
25	0x3b8790e3	0.004137145
26	0xbc435d3c	-0.011924084
27	0xbd6af88e	-0.057365946
28	0x3d2b4e3a	0.04182265
29	0x3cb5cb2b	0.022191605
30	0x3c94364f	0.018092303
31	0x3d93938a	0.07205875

sequential_6/dense_25/BiasAdd/ReadVariableOp f4 [64]
0	0x3c6cb94c	0.014448475
1	0xbbe490e4	-0.00697528
2	0x3cf9a058	0.030471966
3	0x3cf282cf	0.02960339
4	0xbb200a1e	-0.0024420093
5	0x3cde7bd3	0.027158653
6	0x00000000	0.0
7	0xbd5bdbda	-0.053676464
8	0x3d26eddd	0.040754188
9	0xbd1996f6	-0.037497483
10	0x00000000	0.0
11	0x3d4a17ad	0.049338985
12	0xbcbefc18	-0.023313567
13	0xbd3c2795	-0.045936186
14	0x3ae49b76	0.001744135
15	0xbd4b9d3e	-0.049710505
16	0x3d7cf16a	0.061753668
17	0x3bf90497	0.007599424
18	0xbc8598e6	-0.01630826
19	0x3d51864f	0.051153477
20	0x3da382bf	0.07983922
21	0x3d20d371	0.039264146
22	0xbd3037ea	-0.043022074
23	0xbd51ff14	-0.051268652
24	0xbccd5d9a	-0.025069047
25	0xbc261c26	-0.010138547
26	0x3c8294c3	0.015940076
27	0x3d0e066d	0.034674097
28	0xbc38c89c	-0.011278298
29	0x3d7d3b3d	0.061824072
30	0x3c20b5cb	0.009808968
31	0x3d38f7d6	0.04515823
32	0xbcdb7c1d	-0.02679258
33	0x3ca01c39	0.019544708
34	0x3cbc0f44	0.022956498
35	0x3d446786	0.04795029
36	0xbcb13c9c	-0.021635346
37	0xba60ad54	-0.000857075
38	0x3d4cfd48	0.050046235
39	0x3d1c1c23	0.03811277
40	0xbd13be5a	-0.036070205
41	0xbb81572d	-0.0039471597
42	0x00000000	0.0
43	0x3d5715c4	0.05251099
44	0x3d7b1e33	0.061308097
45	0x3d332364	0.043734923
46	0x00000000	0.0
47	0x3b82b0ba	0.0039883526
48	0xbd4b2931	-0.04959983
49	0x3c821752	0.01588026
50	0xbcaac251	-0.02084461
51	0x3cf9b348	0.030480996
52	0x00000000	0.0
53	0x3c6f32bb	0.014599497
54	0xbc7f061b	-0.0155654205
55	0x3d780066	0.060547255
56	0x3c92f591	0.01793936
57	0x3cd74851	0.0262796
58	0x3d007f80	0.031371593
59	0x00000000	0.0
60	0x3d54cf99	0.051955793
61	0xbc2e9cfe	-0.010657547
62	0x3c0c5e80	0.008567452
63	0xbcd33302	-0.025781158

sequential_6/dense_25/MatMul f4 [64, 20]
0	0x3eb8e139	0.3610933
1	0xbdf62f0d	-0.12020693
2	0x3e976ff9	0.29577616
3	0xbe07c05e	-0.13256976
4	0x3e75cbb7	0.24003492
5	0x3ea6cd28	0.32578397
6	0x3dda052d	0.106455185
7	0xbe304e02	-0.17217258
8	0xbdc3b3d8	-0.09555787
9	0xbddf3b75	-0.109000124
10	0x3e8b3ae8	0.2719338
11	0x3e744958	0.23856103
12	0x3e0d3cdd	0.13792749
13	0xbcd84810	-0.02640155
14	0xbda55015	-0.08071915
15	0xbe24f36e	-0.16108486
16	0x3d1770d7	0.036972847
17	0x3d7f11eb	0.062272947
18	0xbe21393c	-0.1574449
19	0xbcc801b0	-0.024414867
20	0x3d32a92d	0.04361837
21	0xbdfd1de0	-0.12359214
22	0xbda6127d	-0.08108995
23	0xbd2e769d	-0.042593587
24	0xbe9359fc	-0.2877959
25	0x3d8b4b53	0.06801476
26	0xbd524de0	-0.0513438
27	0xbe13d054	-0.1443494
28	0xbde8012e	-0.1132835
29	0xbe7af95e	-0.24509189
30	0x3df5eb81	0.120078094
31	0x3df1b239	0.118015714
32	0xbe9e1287	-0.3087351
33	0x3d65e537	0.0561268
34	0xbcd3ac8a	-0.025839109
35	0xbe1208c8	-0.14261162
36	0xbd829156	-0.06375377
37	0x3e662123	0.22473578
38	0xbdce6ff6	-0.100799486
39	0xbe228767	-0.15871964
40	0x3ed14da1	0.4087954
41	0x3e829e50	0.25511408
42	0x3d34b96f	0.044122156
43	0xbeb297f3	-0.34881553
44	0x3dde76d3	0.10862508
45	0x3dd39f2f	0.10333096
46	0x3b2b282c	0.0026116474
47	0xbd9f10df	-0.0776689
48	0xbe6e04be	-0.23243997
49	0x3ea228ee	0.31671852
50	0x3d6db22f	0.058031257
51	0x3e5a6b92	0.21330097
52	0x3df847a9	0.12123043
53	0x3e22c286	0.15894517
54	0xbb67a18b	-0.003534409
55	0xbcad42a8	-0.021149948
56	0xbe8c0dff	-0.27354428
57	0x3d8b937c	0.0681524
58	0xbe2c75b9	-0.16841783
59	0xbcf95fb9	-0.030441152
60	0xbe0a8a84	-0.13529402
61	0xbd2d93a7	-0.04237714
62	0xbea4797b	-0.32123932
63	0x3db905b7	0.09034293
64	0xbe6e7077	-0.2328509
65	0x3e1407b1	0.14456059
66	0xbddb5800	-0.10710144
67	0xbe274129	-0.1633345
68	0xbdb2c0e3	-0.087281965
69	0x3c92e9ea	0.017933805
70	0xbdc69782	-0.096968666
71	0xbe45b3c9	-0.19306864
72	0xbd924189	-0.07141406
73	0xbe5ece23	-0.21758322
74	0x3e911a1e	0.28340238
75	0x3dc97eae	0.09838615
76	0xbdf1d9f1	-0.11809147
77	0x3e2bbd40	0.16771412
78	0x3e73cd2e	0.23808739
79	0xbe47d214	-0.19513732
80	0xbed113c9	-0.40835407
81	0xbea3edf6	-0.32017487
82	0xbe8ea7a0	-0.27862263
83	0xbdc7f578	-0.09763616
84	0xbe31f301	-0.17377855
85	0x3cff8b06	0.031194221
86	0x3e33829a	0.1753029
87	0xbd6e978a	-0.058249988
88	0x3e6da3ef	0.23207067
89	0xbdb738fa	-0.08946414
90	0xbe643d19	-0.22288932
91	0xbe18609d	-0.14880605
92	0x3d9b7f73	0.075926684
93	0x3e371301	0.17878343
94	0xbc6ade00	-0.0143351555
95	0x3bce6274	0.0062983576
96	0x3d505b0f	0.05086809
97	0xbe32aaaf	-0.17447923
98	0xbe81007d	-0.25195685
99	0x3e5096ab	0.20369975
100	0xbea0d47f	-0.31412122
101	0x3e2540e7	0.1613804
102	0x3c971287	0.018441452
103	0x3e1c5216	0.15265688
104	0x3e3edac3	0.18638138
105	0xbc5a6987	-0.013330824
106	0x3df4ab06	0.11946683
107	0xbd8cbaeb	-0.06871589
108	0x3d4c5be1	0.04989231
109	0xbe49d183	-0.19708829
110	0x3d5e33b8	0.05424854
111	0x3dfc6b25	0.12325124
112	0xbd9c11ef	-0.07620608
113	0x3defec48	0.11714989
114	0x3d0ed513	0.034871172
115	0xbdde943f	-0.108681194
116	0x3d50713e	0.050889246
117	0xbdca392e	-0.098741874
118	0xbe0118ec	-0.12607163
119	0xbcd49af1	-0.025952788
120	0xbe6a0eda	-0.22857228
121	0x3e64ce36	0.22344288
122	0x3de9e8c8	0.114213526
123	0xbceb6db0	-0.028738827
124	0xbe590030	-0.21191478
125	0xbdf96612	-0.121776715
126	0x3e56a604	0.20961767
127	0xbdad3482	-0.08457281
128	0x3db4513c	0.08804557
129	0xbdeb40f2	-0.11486997
130	0x3e35ad48	0.17741883
131	0xbe8521ea	-0.26002437
132	0xbdae1bec	-0.085014194
133	0xbe1effa3	-0.15527205
134	0xbc7902a0	-0.01519838
135	0xbe349260	-0.17633963
136	0xbba1e080	-0.0049400926
137	0x3d15c780	0.03656721
138	0x3a009a00	0.000490576
139	0xbdd79852	-0.105271
140	0x3dfa4897	0.12220877
141	0x3e680b08	0.22660458
142	0xbd633a52	-0.05547554
143	0xbe7cc563	-0.24684672
144	0xbd9fe2c5	-0.07806925
145	0x3de35255	0.11099688
146	0x3e0d3150	0.13788342
147	0xbea06d24	-0.31333268
148	0x3e99d957	0.3004863
149	0x3e74b410	0.23896813
150	0xbe09ae6b	-0.13445441
151	0xbdc94f25	-0.09829549
152	0xbcd4de33	-0.02598486
153	0x3e8636fd	0.26213828
154	0xbeb1e36e	-0.34743828
155	0xb9f03439	-0.00045815276
156	0xbe01dcd7	-0.126819
157	0x3d9a516b	0.075350605
158	0x3e852a72	0.26008946
159	0x3e77bbcc	0.24192733
160	0x3d88b3df	0.06674933
161	0x3daf0ccc	0.08547363
162	0xbe4b9335	-0.19880374
163	0xbe1a5a65	-0.15073545
164	0x3c7c353e	0.015393553
165	0xbd86520c	-0.06558618
166	0x3e854898	0.26031947
167	0xbe28e5c6	-0.16493902
168	0x3eafafee	0.3431391
169	0xbdc37f2b	-0.0954574
170	0x3e15838c	0.14600962
171	0x3e91de4f	0.2848992
172	0x3e5c2cce	0.21501467
173	0x3d5cb073	0.053879213
174	0xbe07c23b	-0.13257687
175	0xbe2a364a	-0.16622272
176	0xbcbdad6d	-0.023153985
177	0xbd690bff	-0.056896206
178	0xbda365e4	-0.079784185
179	0xbdf962b5	-0.1217703
180	0xbea2b947	-0.3178198
181	0x3cb97552	0.02263895
182	0x3d1f7eba	0.038939215
183	0xbe4eb0f4	-0.2018469
184	0xbd9ed125	-0.07754735
185	0xbec4a5d4	-0.38407767
186	0xbc94025b	-0.01806753
187	0xbedf6eac	-0.43639123
188	0x3ebd1945	0.36933342
189	0xbe441152	-0.19147232
190	0xbdd57c2a	-0.10424073
191	0x3e0d573c	0.13802809
192	0xbe5fc5a7	-0.21852742
193	0x3de45c5b	0.11150428
194	0x3d42b70b	0.047537845
195	0x3e12bb57	0.14329277
196	0x3e6b0497	0.2295097
197	0xbdff3f55	-0.124632515
198	0x3e714520	0.23561525
199	0x3bc61776	0.006045277
200	0xbe3a87d1	-0.18215872
201	0xbdb6bae6	-0.08922367
202	0xbdb43b3e	-0.08800362
203	0xbe798c4e	-0.24369928
204	0x3d000150	0.03125125
205	0x3d303138	0.04301569
206	0xbe6f2ca6	-0.23356876
207	0xbd9fd970	-0.07805145
208	0xbe7e681f	-0.24844407
209	0x3d86b2f4	0.06577101
210	0xbd1a176c	-0.037619993
211	0xbe47d39b	-0.19514315
212	0xbdf95bc8	-0.12175709
213	0xbe7594ee	-0.23982593
214	0xbe796ff1	-0.24359109
215	0xbe00b057	-0.12567268
216	0x3dab8dd8	0.08376664
217	0xbe5d3499	-0.21602096
218	0x3e219330	0.15778804
219	0xbdcb0e24	-0.099148065
220	0xbeca7048	-0.3953879
221	0xbe214bf2	-0.15751627
222	0x3e26df89	0.1629621
223	0xbe0cdbe0	-0.1375575
224	0xbdd0455b	-0.101694785
225	0xbe0076e6	-0.12545356
226	0x3e7ebc73	0.24876575
227	0xbe01565b	-0.12630598
228	0x3d9a1b7c	0.075247735
229	0x3ea2f56f	0.31827876
230	0x3e561635	0.20906909
231	0xbde3ffa6	-0.111327454
232	0x3e731627	0.23738919
233	0x3d401f9f	0.046905156
234	0xbc055623	-0.008138212
235	0xbe06e66c	-0.13173836
236	0x3e266b5c	0.16251892
237	0x3c54b20b	0.012981902
238	0xbe64688e	-0.2230551
239	0x3eb1fc49	0.3476279
240	0x3dbac061	0.091187246
241	0xbe3c1059	-0.18365611
242	0xbeba97b7	-0.36443874
243	0xbeb08998	-0.34479976
244	0x3e571234	0.21003038
245	0xbddd7951	-0.10814155
246	0x3e5f4610	0.2180407
247	0xbe553b38	-0.20823371
248	0x3e04b979	0.12961377
249	0x3e22f708	0.15914547
250	0xbe1fde83	-0.15612225
251	0x3d8849f6	0.06654732
252	0xbdb0556a	-0.086100414
253	0x3e6149b3	0.2200077
254	0x39bd75b1	0.00036136576
255	0x3d2df5fe	0.042470925

sequential_6/dense_26/MatMul f4 [32, 64]
0	0x3e5933ed	0.21211214
1	0xbe77bdce	-0.24193498
2	0x3dabb6c0	0.08384466
3	0xbe3ffad1	-0.18748023
4	0x3e18f673	0.14937763
5	0x3e385fa4	0.18005234
6	0x3e691bf4	0.2276457
7	0xbbc305e2	-0.005951629
8	0xbcaf76f8	-0.021419033
9	0xbe1d5fcd	-0.15368576
10	0xbe4f5d68	-0.20250475
11	0xbe4d5f9b	-0.20056002
12	0x3ea1d6de	0.31609243
13	0xbe9e00aa	-0.30859882
14	0xbe9ad05f	-0.302371
15	0x3d972a77	0.073811464
16	0xbddf19ae	-0.1089357
17	0xbe34f8ed	-0.17673083
18	0xbea19e40	-0.31566048
19	0xbe011a8f	-0.12607788
20	0x3e3b1ed0	0.18273473
21	0x3dc07db8	0.09398979
22	0xbe935315	-0.28774324
23	0x3c9c24bf	0.01906049
24	0xbc2e6c7c	-0.010645982
25	0x3de5aaa3	0.11214187
26	0xbd4c7660	-0.04991758
27	0xbcb010c8	-0.021492377
28	0x3d8787d8	0.06617707
29	0x3ea6981a	0.3253792
30	0xbeb0eee2	-0.34557253
31	0xbd2ed0c0	-0.04267955
32	0x3d965d78	0.073420465
33	0x3e8d0e57	0.27550003
34	0x3d46fb5f	0.04857957
35	0x3e4bd872	0.19906786
36	0x3d9f8bcc	0.07790336
37	0xbe6e79b9	-0.23288621
38	0xbd4d5a60	-0.050135016
39	0xbe50fb5d	-0.20408387
40	0xbd37f39b	-0.044910055
41	0xbe7b4e6a	-0.24541631
42	0xbe5404c8	-0.20704949
43	0x3ea7d42c	0.32779062
44	0x3e0b0fa6	0.13580188
45	0x3dc1e862	0.09468152
46	0x3dcf8150	0.10132086
47	0xbd75ab56	-0.05997785
48	0x3e317358	0.17329156
49	0x3d1f3926	0.03887286
50	0x3df1c7ac	0.118056625
51	0x3b74e8dd	0.0037370243
52	0xbb121e00	-0.0022295713
53	0x3d4dea41	0.05027223
54	0x3e46ded8	0.19420946
55	0x3e81de13	0.25364742
56	0xbc4c7f07	-0.012481458
57	0xbe7b3e7b	-0.24535553
58	0x3d7d1316	0.06178578
59	0x3d561620	0.052267194
60	0xbc1050e3	-0.008808347
61	0x3e807b8d	0.25094262
62	0xbe8a2da5	-0.2698795
63	0xbe0d9c75	-0.13829215
64	0xbc089291	-0.008335725
65	0x3e75063e	0.23928162
66	0x3d3366f0	0.04379934
67	0x3d805610	0.06266415
68	0xbd9e36fc	-0.07725331
69	0x3ddafa93	0.106923245
70	0xbdfe5ce0	-0.12420058
71	0x3c271580	0.010197997
72	0xbd7ac87a	-0.061226346
73	0xbe38e6a4	-0.18056732
74	0x3e2a5d04	0.16637045
75	0x3d684bf9	0.05671308
76	0x3da34585	0.07972244
77	0xbcd35ce0	-0.025801122
78	0x3d142190	0.03616482
79	0x3de97ca2	0.11400725
80	0xbe2e28c1	-0.17007734
81	0x3d2c51fc	0.042070374
82	0x3c1a4600	0.009416103
83	0x3d3b9888	0.045799762
84	0xbe4af550	-0.19820142
85	0xbe07a4cf	-0.13246463
86	0xbd023180	-0.031785488
87	0xbe26b177	-0.16278635
88	0x3e70848a	0.2348806
89	0xbe566d6e	-0.20940182
90	0xbe693694	-0.22774726
91	0x3c275a40	0.010214388
92	0x3da62b20	0.08113694
93	0x3e261633	0.16219406
94	0xbe6a5228	-0.22882903
95	0x3d411fe2	0.047149546
96	0xbe521404	-0.20515448
97	0x3e0f9c0a	0.14024368
98	0xbe8496a9	-0.25896195
99	0x3de78b70	0.113058925
100	0xbe245409	-0.16047682
101	0xbe2810d0	-0.16412663
102	0x3d45b56f	0.04826873
103	0x3d846100	0.06463814
104	0xbe29718a	-0.16547218
105	0xbe6839cf	-0.22678302
106	0xb9855800	-0.00025433302
107	0x3e233ba5	0.15940721
108	0x3e02f371	0.12788178
109	0x3c8ea664	0.017413326
110	0xbe4bd2d0	-0.19904637
111	0xbdac6564	-0.08417776
112	0xbe252441	-0.16127111
113	0x3d6bb460	0.057545066
114	0xbe5abe7e	-0.2136173
115	0x3de23299	0.11044807
116	0x3e0b1420	0.13581896
117	0xbe482f99	-0.19549407
118	0x3d3d0dce	0.046155743
119	0x3e1d019f	0.1533265
120	0xbce35a64	-0.027753063
121	0x3d9056ee	0.070478305
122	0x3c025d86	0.007956868
123	0xbe300df8	-0.17192829
124	0xb9d0c3f2	-0.00039818842
125	0x3d4b1da0	0.0495888
126	0xbdef7760	-0.11692691
127	0x3c740c00	0.014895439
128	0xbdd8bcc4	-0.10582879
129	0xbcced47c	-0.025247805
130	0x3e714c11	0.23564173
131	0x3e95bec9	0.2924712
132	0x3cc2063c	0.023684613
133	0x3d43ba26	0.047784947
134	0x3c52b340	0.012860119
135	0xbe6f33b8	-0.23359573
136	0x3d44ac71	0.048016015
137	0xbd384750	-0.044989884
138	0xbd7f5800	-0.062339783
139	0xbd9cb244	-0.07651189
140	0x3e0b6998	0.136145
141	0x3d833f66	0.06408577
142	0x3e091626	0.13387355
143	0xbe20296d	-0.15640803
144	0x3e9fde7a	0.31224424
145	0xbc08bc72	-0.00834571
146	0x3e3cb9a0	0.18430185
147	0xbe757ab1	-0.23972584
148	0x3cad2399	0.021135138
149	0xbd8ea5cf	-0.06965219
150	0xbe5f8c37	-0.21830831
151	0xbe763cf7	-0.24046694
152	0xbe6498d2	-0.22323921
153	0xbe3cbcb0	-0.18431354
154	0x3ca46125	0.020065853
155	0x3c05a7c3	0.008157673
156	0xbe7b94b3	-0.24568443
157	0x3ea19477	0.31558582
158	0x3dac659b	0.08417817
159	0x3e6b016a	0.22949758
160	0xbd4a76db	-0.049429756
161	0xbd607073	-0.05479474
162	0x3ca52ef3	0.020163989
163	0x3e77f8c0	0.24215984
164	0xbdad2ef2	-0.0845622
165	0xbe0c90b9	-0.13727082
166	0xbdb014d8	-0.08597726
167	0x3e60b674	0.219446
168	0xbce03633	-0.027369594
169	0x3e2fb666	0.17159423
170	0xbd81e538	-0.06342548
171	0xbe5ee76e	-0.21767971
172	0x3e00b290	0.12568116
173	0xbe394651	-0.1809323
174	0x3e091fc4	0.13391024
175	0x3d8c07c9	0.068374224
176	0xbdf36875	-0.11885158
177	0x3d00b613	0.03142364
178	0xbe081b83	-0.13291745
179	0x3e32dcfc	0.17467111
180	0xbde1db50	-0.11028159
181	0x3ca5fcec	0.020262204
182	0x3e50329f	0.2033181
183	0xbe34376c	-0.17599267
184	0x3cd720dc	0.026260786
185	0xbe3453ef	-0.17610143
186	0xbe303675	-0.17208274
187	0x3d2e4c00	0.042552948
188	0x3d6cb9bc	0.057794318
189	0xbe7a614e	-0.24451181
190	0x3dac6bb8	0.08418983
191	0xbc80a9ee	-0.015706029
192	0xbe0c3f5d	-0.13696046
193	0x3ded8eb1	0.11599482
194	0xbe89e843	-0.26935014
195	0xbeceb846	-0.40374964
196	0x3e3a4d79	0.18193616
197	0x3e5577c4	0.20846468
198	0xbc883980	-0.01662898
199	0x3e61334e	0.21992227
200	0x3de88cb2	0.113549605
201	0xbcdf82c4	-0.027284034
202	0xbdff3cb8	-0.12462753
203	0xbea59a65	-0.32344356
204	0xbada3f03	-0.0016650859
205	0x3e96be98	0.29442286
206	0xbd3a8ed9	-0.045546386
207	0x3e596188	0.21228611
208	0x3ea915a9	0.33024338
209	0x3d891f50	0.066954255
210	0x3e6ef678	0.23336208
211	0xbd08094f	-0.033212002
212	0xbd91f96f	-0.07127654
213	0xbc8901cf	-0.016724495
214	0x3d5d19db	0.053979736
215	0xbde585d7	-0.112071685
216	0x3d6cf2a1	0.057848576
217	0xbe0339ff	-0.12815093
218	0xbe27a493	-0.16371374
219	0xbe690399	-0.22755279
220	0xbe6e36a6	-0.23263034
221	0x3e0dc07f	0.13842963
222	0xbd3f8d19	-0.04676542
223	0xbe85104e	-0.25989002
224	0xbe07c2de	-0.1325793
225	0xbd800cb3	-0.06252422
226	0xbe29dd72	-0.16588381
227	0xbc2ef211	-0.01067783
228	0x3e1102f0	0.14161277
229	0xbe0acea5	-0.13555391
230	0x3eae76e7	0.3407509
231	0x3df563b7	0.1198191
232	0xbe07c590	-0.13258958
233	0x3a7d5478	0.0009663771
234	0xbddb0fb8	-0.106963575
235	0x3ba1b351	0.0049347063
236	0x3e6bf1e4	0.23041493
237	0x39ac008b	0.000328068
238	0x3d92cf68	0.07168466
239	0xbc3b2045	-0.011421268
240	0xbe651f28	-0.22375166
241	0xbded573c	-0.11588904
242	0xbe6246ce	-0.22097322
243	0xbe33b54a	-0.17549625
244	0xbd621090	-0.055191576
245	0x3e9a51ca	0.30140525
246	0x3d69a54f	0.057042416
247	0x3e2adfde	0.16686961
248	0xbe7768d8	-0.24161088
249	0x3c21fbcb	0.009886692
250	0x3e69d04d	0.22833367
251	0xbe1b6b64	-0.15177685
252	0xbe110f41	-0.14165975
253	0xbe42af99	-0.19012298
254	0xbe5eaf99	-0.21746673
255	0x3d1fad9a	0.03898392

sequential_6/dense_27/MatMul f4 [32, 32]
0	0x3da94845	0.082657374
1	0xbe559b78	-0.20860088
2	0x3ddaa543	0.106760524
3	0xbe051868	-0.12997591
4	0x3e6fb2be	0.23408028
5	0x3e5a5cf6	0.21324524
6	0x3e64a675	0.22329123
7	0x3c3fb102	0.011699917
8	0x3e27cbe8	0.16386378
9	0xbdcad7b4	-0.09904423
10	0x3d0d70e2	0.03453148
11	0xbe877417	-0.26455757
12	0x3e5fe96c	0.21866387
13	0xbe4d9fb8	-0.20080459
14	0x3d01a6a4	0.03165306
15	0xbc42936b	-0.0118759675
16	0xbde18b2b	-0.11012872
17	0xbdcc0ec1	-0.099637516
18	0x3dd74fab	0.10513242
19	0x3bfb2da6	0.007665354
20	0x3de30295	0.11084477
21	0x3d3daa3f	0.046304937
22	0xbbe4181f	-0.0069608833
23	0x3e51fa86	0.20505723
24	0x3e0e6a83	0.13907818
25	0x3e6307f8	0.22171009
26	0xbc763a99	-0.015028619
27	0xbe8d59cf	-0.2760758
28	0xbe9366fa	-0.28789502
29	0xbe7d042a	-0.2470862
30	0x3df312a2	0.11868788
31	0xbd3e7372	-0.046496816
32	0xbd56661b	-0.05234347
33	0x3e0433ef	0.12910436
34	0x3d8703d9	0.06592531
35	0xbe90fc47	-0.28317472
36	0x3e8e0873	0.2774082
37	0xbd7bb159	-0.06144843
38	0x3e8652c3	0.26235017
39	0xbe508d94	-0.20366508
40	0xbe71f768	-0.23629534
41	0x3da6d33a	0.08145757
42	0x3e82fabd	0.25581923
43	0x3e3bca75	0.1833895
44	0xbe952f37	-0.29137585
45	0x3e348642	0.1762934
46	0x3eb17c87	0.3466532
47	0x3dcd6542	0.10029079
48	0x3b0b014b	0.0021210487
49	0x3d65b1b6	0.05607768
50	0xbd2f277b	-0.04276226
51	0xbe16e65b	-0.14736311
52	0xbe15b3df	-0.14619397
53	0x3e64c111	0.22339274
54	0xbe68f235	-0.22748645
55	0x3c7349d9	0.01484915
56	0x3e098aa2	0.1343179
57	0x3eb34453	0.35013065
58	0xbe5ab7ab	-0.21359126
59	0xbd9c15ff	-0.07621383
60	0xbe748dd0	-0.23882222
61	0xbd681df2	-0.056669183
62	0x3c9f601e	0.019455012
63	0x3e4cd59b	0.20003359
64	0xbdd1bbe6	-0.10240917
65	0xbe89032f	-0.2676024
66	0x3cf054c0	0.029337287
67	0x3d793a50	0.060846627
68	0x3cc06ea0	0.02349025
69	0xbe98fa60	-0.2987852
70	0xbe85f97d	-0.26166907
71	0x3e879e25	0.26487842
72	0x3e869a97	0.26289818
73	0xbe4892af	-0.19587205
74	0xbd8311fe	-0.06399916
75	0x3b767880	0.0037608445
76	0x3e9c8b97	0.3057525
77	0xbd48e618	-0.04904756
78	0x3dbfac08	0.09358984
79	0xbe4de878	-0.20108211
80	0x3e0241ec	0.1272046
81	0x3c8d9ac0	0.017285705
82	0xbe74b5a5	-0.23897417
83	0xbe841fdb	-0.25805554
84	0xbdf603a4	-0.12012413
85	0x3e2b81b0	0.1674869
86	0x3e9230ef	0.28552958
87	0xbe817464	-0.25284111
88	0xbd951042	-0.072784916
89	0xbe5460d2	-0.20740059
90	0xbe7aaec2	-0.24480727
91	0x3e9464bd	0.28983107
92	0x3e5cfd7a	0.21581069
93	0xbd924142	-0.07141353
94	0xbe95482a	-0.2915662
95	0xbe560d40	-0.20903492
96	0x3d313b6a	0.043269552
97	0x3e8cef24	0.275262
98	0x3ea82610	0.3284154
99	0xbe82beed	-0.2553629
100	0x3ddb92d1	0.107213624
101	0x3db43d89	0.088007994
102	0x3e6ba507	0.23012172
103	0x3e23ab77	0.15983377
104	0x3e1a9289	0.15094961
105	0x3d4fd7a3	0.050742757
106	0x3cf000c6	0.029297244
107	0x3eaff7f9	0.34368876
108	0xbda5cd22	-0.080957666
109	0x3c733ba2	0.014845761
110	0x3ea1945e	0.31558508
111	0xbe099c21	-0.13438465
112	0x3ddab623	0.10679271
113	0xbcbc7113	-0.023003137
114	0xbd6224b3	-0.05521078
115	0x3d602bc5	0.054729242
116	0x3e66f646	0.22554883
117	0x3d8a95e9	0.06766874
118	0x3e2c97b5	0.16854747
119	0x3d7532e6	0.059862994
120	0x3dd63a91	0.104603894
121	0xbd93678d	-0.07197485
122	0xbd409fb2	-0.047027297
123	0x3e8406ec	0.2578653
124	0x3e594b31	0.2122009
125	0x3bcb2262	0.006199167
126	0x3c9ba11a	0.018997718
127	0xbd7c61bc	-0.061616644
128	0x3ce20305	0.02758933
129	0xbe32e90a	-0.1747171
130	0x3e3e1798	0.18563688
131	0x3ef7a4a7	0.48367807
132	0x3d238a34	0.039926723
133	0x3e0e970c	0.13924807
134	0x3e8fd910	0.28095293
135	0xbda5f233	-0.081028365
136	0x3ecdf32e	0.40224594
137	0x3ef323cf	0.47488257
138	0xbc09cd0e	-0.008410705
139	0x3e337287	0.17524157
140	0xbd4de388	-0.05026582
141	0x3e82126f	0.2540469
142	0x3d1daa46	0.038492464
143	0x3e5adbbe	0.21372887
144	0xbdb9a9d9	-0.09065599
145	0xbd9bef4b	-0.07614001
146	0xbe6441ac	-0.22290677
147	0x3d266f7e	0.04063367
148	0xbe126cdf	-0.14299344
149	0x3ebd4f9f	0.3697481
150	0x3e4624f5	0.19350035
151	0xbe86386d	-0.26214924
152	0x3dc9c6e8	0.098523915
153	0xbb833cc6	-0.0040050475
154	0xbda17e91	-0.07885469
155	0x3d966647	0.073437266
156	0xbda834c2	-0.08213188
157	0xbeb35040	-0.35022163
158	0xbe2510cd	-0.1611969
159	0x3c9735da	0.018458296
160	0xbd63bb37	-0.055598464
161	0xbe58906e	-0.21148846
162	0xbe1173ce	-0.14204332
163	0xb972a97b	-0.00023142055
164	0x3d9cee84	0.07662681
165	0xbe93abee	-0.2884211
166	0x3e176ffb	0.14788811
167	0xbea692a7	-0.32533762
168	0xbe58cd63	-0.21172099
169	0x3dc92ce7	0.098230176
170	0xbc95879b	-0.018253138
171	0x3e82212a	0.25415927
172	0x3d284b32	0.041087337
173	0x3cf9407b	0.030426254
174	0x3e5a52d8	0.21320665
175	0x3db66986	0.08906846
176	0x3e30bb33	0.17258911
177	0x3d5a0cc7	0.05323484
178	0xbda1fe50	-0.079098344
179	0xbe2c5ac1	-0.16831495
180	0xbe672166	-0.22571334
181	0xbd06287c	-0.032753453
182	0x3e56f03f	0.20990084
183	0x3e3bb17c	0.18329424
184	0xbe6f09e8	-0.23343623
185	0x3d40a29f	0.047030088
186	0xbdcfbace	-0.10143052
187	0xbe64b8fd	-0.22336192
188	0xbe80241c	-0.2502755
189	0x3e4471eb	0.19184081
190	0x3d8071e7	0.06271725
191	0xbdf719b2	-0.12065448
192	0xbd39713d	-0.045274008
193	0xbe630c43	-0.22172646
194	0x3db004a0	0.08594632
195	0xbec96e86	-0.39342135
196	0x3d5828cc	0.052773282
197	0xbe49f1e3	-0.19721179
198	0xbd7ba8a7	-0.061440136
199	0x3def8e89	0.11697108
200	0xbea44c48	-0.32089448
201	0x3d8a43a0	0.0675118
202	0x3e2520a2	0.1612573
203	0x3e91144a	0.28335792
204	0x3cc998c3	0.024608975
205	0x3e8e6c4f	0.27817008
206	0xbd1b981f	-0.03798687
207	0xbe8765a1	-0.26444724
208	0xbe90a7f7	-0.28253147
209	0x3dc43eb4	0.09582272
210	0x3e80f1be	0.25184435
211	0xbdffd40a	-0.12491615
212	0xbd579178	-0.052628964
213	0xbec99938	-0.3937471
214	0xbe5e9e9f	-0.21740197
215	0xbd518546	-0.05115249
216	0x3e4e4c1b	0.2014622
217	0x3e98c567	0.29838106
218	0x3ea3917b	0.3194693
219	0xbe3a6927	-0.18204175
220	0x3db84edc	0.08999416
221	0xbda6edf0	-0.08150852
222	0xbe947be3	-0.29000768
223	0x3d800bfc	0.06252286
224	0x3e9d774f	0.30755088
225	0x3e5be80f	0.21475242
226	0xbe51b70a	-0.2047998
227	0x3d142fbe	0.036178343
228	0xbddde1cc	-0.10834083
229	0x3e9ac2fb	0.30226883
230	0x3c9600d3	0.01831094
231	0xbd32e6d6	-0.043677174
232	0x3eb0959a	0.34489137
233	0x3e6c98dd	0.23105188
234	0x3db68be2	0.08913399
235	0xbe385ac3	-0.18003373
236	0xbcff5925	-0.031170437
237	0x3d72a568	0.059239775
238	0x3bcdff88	0.006286565
239	0x3e7abbdf	0.2448573
240	0x3ebc9265	0.3683044
241	0x3e6a72d3	0.22895364
242	0x3e506ca4	0.20353943
243	0xbe23767a	-0.15963164
244	0x3e60e712	0.21963146
245	0x3e1ba9a2	0.15201429
246	0x3d87659c	0.06611177
247	0x3d56e385	0.052463073
248	0xbe8974bf	-0.26846883
249	0xbe160d45	-0.146535
250	0x3e6bcef1	0.2302816
251	0x3e3257b0	0.17416263
252	0xbe44ac36	-0.19206318
253	0xbea69fee	-0.32543892
254	0xbe2cf791	-0.16891314
255	0x3e8cca46	0.27498072

sequential_6/dense_28/MatMul f4 [32, 32]
0	0xbe874c86	-0.2642557
1	0x3bd34380	0.0064472556
2	0xbe87acb4	-0.2649895
3	0x3d4d2648	0.050085336
4	0xbdda0b66	-0.10646705
5	0xbdabad0e	-0.08382617
6	0xbcbba910	-0.022907764
7	0x3cebded0	0.028792769
8	0x3dbdad3c	0.092615575
9	0xbd8b9bc8	-0.06816822
10	0x3e0293a6	0.12751636
11	0x3e12d452	0.14338806
12	0x3e39f8d6	0.1816133
13	0xbd8d24c4	-0.06891778
14	0xbcd79d70	-0.02632019
15	0xbe4a1a6e	-0.19736645
16	0x3e010656	0.12600073
17	0x3d730ef0	0.059340417
18	0xbe8e2259	-0.2776058
19	0xbe793ac3	-0.24338822
20	0xbd2ed4f0	-0.04268354
21	0x3e7e8336	0.2485474
22	0x3cf25ed0	0.029586226
23	0xbe639764	-0.2222572
24	0x3e7ad92a	0.24496904
25	0x3e8ff389	0.2811549
26	0x3e861663	0.26188955
27	0xbdfabb3c	-0.122427434
28	0x3dbfaa50	0.093586564
29	0xbe9a5dd0	-0.30149698
30	0xbdbbfbf0	-0.09178913
31	0x3dfc74d4	0.12326971
32	0xbc967a65	-0.01836891
33	0x3d020785	0.031745452
34	0xbe9c34f2	-0.30509144
35	0xbd182c02	-0.037151344
36	0x3e9cea9b	0.3064774
37	0xbe502257	-0.203256
38	0xbcfb2e48	-0.030661717
39	0x3dc6b7d6	0.09703033
40	0x3eb2deff	0.34935758
41	0x3de3be2e	0.11120258
42	0x3cb7d3ff	0.022439955
43	0x3e7f5ccd	0.24937744
44	0x3eed0dbf	0.4629955
45	0x3d1d3a75	0.038385827
46	0x3e619489	0.22029318
47	0x3edc7e07	0.430649
48	0xbdb3188e	-0.08744918
49	0xbbd3a456	-0.0064587994
50	0x3e6dfc2c	0.23240727
51	0xbe345bfb	-0.17613213
52	0x3ceb6fd0	0.02873984
53	0xbd02a784	-0.031898037
54	0x3e743d2e	0.23851463
55	0xbcebfc33	-0.028806781
56	0x3e25d39c	0.16194004
57	0xbdd74c4d	-0.105126
58	0xbccafab0	-0.02477774
59	0xbe38b7f1	-0.18038918
60	0x3e782d50	0.24236035
61	0x3ddd2832	0.10798682
62	0x3e6e443c	0.23268217
63	0x3e9b3566	0.30314177
64	0xbe524cfc	-0.2053718
65	0x3e4561d6	0.19275603
66	0xbe2e2e30	-0.17009807
67	0x3e302362	0.17200997
68	0x3e7ae31a	0.24500695
69	0x3d347f26	0.04406657
70	0xbd34b7ed	-0.044120718
71	0x3e5f15e1	0.2178569
72	0x3da24a35	0.0792431
73	0x3cf81c21	0.03028685
74	0x3ec8ca25	0.39216724
75	0xbe8e0e7b	-0.27745423
76	0x3c09bf89	0.008407482
77	0x3e866d9f	0.2625551
78	0x3e6be113	0.23035078
79	0x3e87109c	0.2637986
80	0xbcebe680	-0.028796434
81	0x3dbb037f	0.09131526
82	0x3e9a1ef0	0.30101728
83	0xbdac62c5	-0.08417276
84	0xbda2cfb7	-0.07949775
85	0xbdb2d28f	-0.08731567
86	0xbe3c9b10	-0.18418527
87	0xbdcda7aa	-0.10041745
88	0xbeb19184	-0.34681332
89	0xbeb3d53e	-0.35123628
90	0x3d2b6c88	0.04185155
91	0xbaa404b1	-0.0012513605
92	0x3cefa3a4	0.029252835
93	0xbe8d7d01	-0.27634433
94	0xbe46ca2c	-0.1941306
95	0x3ea1cde9	0.3160241
96	0x3e6c23cc	0.2306053
97	0xbe083c2a	-0.13304201
98	0xbe963c15	-0.29342714
99	0x3e403967	0.18771897
100	0xbd4ee2fb	-0.050509434
101	0xbdf8d8d9	-0.121507354
102	0xbe0675cb	-0.13130872
103	0x3e4d1409	0.20027174
104	0x3e21d4f7	0.15803896
105	0x3e399d9f	0.18126534
106	0xbd6ff2f6	-0.058581315
107	0xbd7705c7	-0.060308244
108	0xbea293c2	-0.31753355
109	0x3c883607	0.016627325
110	0x3e2c295d	0.16812654
111	0xbe851d6e	-0.25999016
112	0x3e98ec15	0.29867616
113	0xbe925126	-0.28577536
114	0xbe3d3620	-0.18477678
115	0xbe749ad6	-0.2388719
116	0x3e75a2f8	0.23987949
117	0xbe3c9f10	-0.18420053
118	0xbe7e6f48	-0.24847138
119	0x3e221557	0.15828453
120	0x3ea9b300	0.3314438
121	0xbe09cd87	-0.13457309
122	0x3d8dd5ac	0.0692552
123	0x3e353caa	0.17698923
124	0xbe6f546f	-0.23372053
125	0x3e67d82b	0.22641055
126	0xbe6ca31d	-0.23109098
127	0x3b9ed7ed	0.0048475177
128	0x3ea181ce	0.31544346
129	0x3db899d2	0.09013714
130	0xbbb19ac0	-0.005420059
131	0xbe4658d4	-0.19369823
132	0xbe91a486	-0.28445834
133	0x3d1f7f9d	0.03894006
134	0xbdd32632	-0.103100196
135	0xbe202938	-0.15640724
136	0x3d181fa0	0.037139535
137	0xbe8804f8	-0.2656629
138	0x3eb842b2	0.35988384
139	0x3e5b9bf0	0.21446204
140	0xbe9f24c6	-0.31082743
141	0xbe308f49	-0.17242159
142	0x3d961051	0.07327331
143	0x3e2866ab	0.16445415
144	0xbe78800c	-0.24267596
145	0x3e816f97	0.2528045
146	0xbe840b0a	-0.25789672
147	0xbdc0eaf2	-0.09419812
148	0x3d4c015b	0.04980598
149	0x3e5ae892	0.21377781
150	0x3e8c0f99	0.2735565
151	0x3e41d4f4	0.18928891
152	0x3dc93c29	0.09825928
153	0xbe8d8229	-0.27638367
154	0x3e0b7a46	0.13620862
155	0x3e87ccaf	0.2652335
156	0xbe7b1a24	-0.2452169
157	0x3dd20829	0.10255463
158	0x3e8fdd00	0.28098297
159	0x3e0419ef	0.12900518
160	0xbe903936	-0.28168648
161	0xbe9db79b	-0.30804142
162	0xbe5397a8	-0.20663321
163	0x3e166160	0.14685583
164	0xbd8bae09	-0.06820304
165	0x3e0e8f99	0.13921966
166	0xbe648190	-0.22315049
167	0xbdf438d8	-0.119249046
168	0x3e54aff5	0.20770247
169	0xbde169f6	-0.110065386
170	0xbec68309	-0.38771847
171	0x3e8ddfb4	0.27709734
172	0x3da998ed	0.082811214
173	0xbdbc00e1	-0.09179855
174	0x3e5b0b2c	0.2139098
175	0x3d69e4b3	0.05710287
176	0x3bf97700	0.007613063
177	0xbd36a0cd	-0.044586945
178	0x3b0f9764	0.0021910304
179	0x3e53a5f4	0.20668775
180	0x3e289e44	0.16466624
181	0xbde54b99	-0.1119606
182	0xbc3b0260	-0.01141414
183	0xbe325949	-0.17416872
184	0xbe24f645	-0.1610957
185	0xbd99c5e7	-0.0750845
186	0x3e854945	0.26032463
187	0x3e406c59	0.18791331
188	0x3df45cfc	0.11931798
189	0x3e7a60b6	0.24450955
190	0x3e71a8ea	0.23599592
191	0x3d059935	0.032616813
192	0xbe1c23d6	-0.15248045
193	0x3e2e46d6	0.1701921
194	0xbcdb5b30	-0.02677688
195	0xbe8a3bc0	-0.2699871
196	0x3d356a63	0.04429091
197	0x3be4f85b	0.006987614
198	0x3eb729ec	0.3577417
199	0x3ce30e3e	0.027716752
200	0x3c9d9f66	0.019241046
201	0x3c2e90dd	0.010654655
202	0xbec1cf12	-0.37853295
203	0x3eb0b779	0.3451498
204	0xbe111333	-0.1416748
205	0x3e43ef7f	0.1913433
206	0x3da2d0c2	0.07949974
207	0xbe13e99e	-0.14444587
208	0x3dd8b7b8	0.105819166
209	0xbd993086	-0.07479958
210	0x3e9ae382	0.302517
211	0x3eb7fc1b	0.3593453
212	0x3e8da3ae	0.2766394
213	0xbe19de26	-0.15026149
214	0x3e8dc4d9	0.27689245
215	0xbe7ad3f0	-0.2449491
216	0x3d31ae40	0.04337907
217	0x3d96866e	0.07349859
218	0x3e84174b	0.2579902
219	0xbe825565	-0.25455776
220	0xbd497f22	-0.04919351
221	0x3e01335a	0.12617245
222	0x3e64bfec	0.22338837
223	0xbe762e08	-0.24040997
224	0x3d561d15	0.05227383
225	0x3e704cff	0.23466872
226	0xbe63a989	-0.22232641
227	0xbcfff3bc	-0.031244151
228	0xbe175cf9	-0.1478156
229	0x3d64e8fa	0.055886246
230	0x3eba1473	0.36343727
231	0xbeb22846	-0.3479635
232	0x3e51aae0	0.2047534
233	0x3e8b854e	0.2725014
234	0xbe7ea875	-0.24868949
235	0x3eacbcf0	0.33737898
236	0xbdfcf373	-0.12351122
237	0xbdf23972	-0.11827363
238	0x3e7a3f35	0.24438174
239	0xbdc83026	-0.097748086
240	0xbe8b1ca5	-0.27170292
241	0x3e523001	0.20526125
242	0xbe0f0aa9	-0.1396891
243	0x3dbbf2c1	0.09177161
244	0x3e58d56d	0.21175165
245	0x3e5d1ca3	0.21592955
246	0xbcdd2bd0	-0.02699843
247	0x3eb4a304	0.3528062
248	0x3e539c6d	0.2066514
249	0x3eab14ba	0.3341425
250	0x3df13a34	0.117786795
251	0xbe821660	-0.25407696
252	0xbdb19022	-0.08670069
253	0x3e6d81bc	0.23194021
254	0x3e60f5d7	0.2196878
255	0x3e1a713c	0.15082258

sequential_6/dense_29/MatMul f4 [1, 32]
0	0x3cab0830	0.020877928
1	0xbed02c2a	-0.40658695
2	0xbea50231	-0.32228234
3	0x3ee2506d	0.44201985
4	0xbecac3ad	-0.39602414
5	0x3d96795c	0.07347366
6	0x3ec3b3ca	0.38223106
7	0x3e6969d3	0.22794275
8	0xbecd24bf	-0.40067098
9	0x3ea0e353	0.31423435
10	0x3edfc2d0	0.43703318
11	0x3ef6a779	0.48174646
12	0xbe2ece77	-0.17070948
13	0x3ed0dbc7	0.40792677
14	0xbf11431a	-0.56743014
15	0xbd83fa09	-0.06444175
16	0xbd5d1fbf	-0.053985354
17	0xbda19a63	-0.07890775
18	0x3e1523ea	0.14564481
19	0xbdf8a4c4	-0.121408015
20	0x3ef6f90f	0.48236892
21	0x3ebb73a2	0.36611658
22	0x3e79faac	0.2441203
23	0xbec82e1a	-0.39097673
24	0x3ebf2404	0.37332165
25	0xbddcf0db	-0.10788127
26	0xbdda774a	-0.10667284
27	0x3eb44bab	0.3521398
28	0x3e96d1b0	0.29456854
29	0xbf0c0c75	-0.5470651
30	0x3ed0e1c6	0.4079725
31	0xbeae3a4a	-0.34028846
